controller_best.pth (torch, 5477 bytes, 2 tensors)

fc.weight f4 [3, 288]
0.30073503 -0.050597847 0.11871268 0.27670467 0.20743047 -0.08667813 -0.1334649 -0.09663478
-0.05810096 -0.3137377 0.13474102 0.024817295 -0.05493801 0.17207001 -0.02353453 -0.101441145
-0.14595419 -0.11320207 -0.051717218 0.09585789 0.05239773 -0.14085369 0.11797748 -0.051425178
-0.13153997 0.07885126 -0.07102 -0.117605 0.31355155 0.09316828 -0.050086986 0.043051444
0.14521812 -0.12029032 -0.12973149 0.11264632 -0.37889755 0.13018097 -0.08461918 -0.09572155
-0.02506665 -0.015274801 0.13907646 0.075237244 0.026749128 -0.08005135 0.08445646 0.10735689
0.092842236 -0.1177091 -0.16449068 0.15746388 0.055145685 -0.0032923282 -0.06355657 -0.1624302
0.0835878 0.034630377 0.05491923 -0.2581849 0.24127387 -0.15400909 -0.022765648 -0.19356006
-0.09203918 -0.25284916 -0.10830988 -0.14343639 -0.054860875 0.14446199 0.16525193 -0.21599875
0.04369441 0.023600688 -0.15963827 -0.07526152 -0.08407647 0.03680475 -0.03654913 0.070548415
0.24418817 0.00845821 -0.14577296 0.00112199 -0.009741189 0.11379773 -0.116789915 -0.17883624
-0.09063064 -0.000119699245 -0.085869186 -0.056169715 -0.004260738 -0.08600288 0.038050313 -0.023209715
-0.14142561 -0.09747898 0.17872041 0.09282144 -0.06781218 -0.023812005 0.0107580805 -0.08287767
0.10613101 -0.070518814 0.0148447 0.13362706 0.028873548 0.08103247 -0.04203246 0.15966153
-0.055174705 -0.07976876 0.06270064 0.009363247 -0.06220803 0.10004495 0.018098453 -0.17499878
-0.056052234 -0.09867069 -0.0057494002 0.12155413 0.061251443 0.1468163 0.24277243 -0.07194292
-0.0779698 -0.049170002 -0.099249445 -0.1289738 -0.1863893 0.061062083 0.24867228 -0.049101435
-0.2637908 0.11028469 0.22088082 -0.026774278 -0.15404722 0.16403973 -0.051241048 0.02059447
0.0849087 -0.030600896 -0.31138936 -0.029533165 0.024825502 -0.17677142 -0.112569936 0.25072062
0.10603322 -0.02164068 -0.11004289 -0.053959828 -0.11869644 0.12946649 0.19245723 0.05475364
-0.14933197 0.060902666 -0.07510729 0.17495568 -0.038610633 0.06923376 0.10838721 0.18289551
0.06171313 -0.15806553 -0.08328555 0.16296896 0.23101902 0.008095671 -0.01937422 -0.03232973
0.019038767 0.10689046 0.02985628 0.028910426 -0.1215717 0.13700218 -0.1711856 0.07895653
-0.025449578 -0.17375295 0.05524714 -0.00022880727 -0.121843904 -0.0885697 -0.16233337 0.14336336
-0.11563775 -0.16514759 -0.019100472 -0.15869229 0.13358995 0.24193698 0.2214063 -0.09370333
-0.022773892 0.096371956 0.0073722564 0.10354267 -0.019836612 -0.13602774 -0.12096901 -0.051453505
0.031694062 0.21518196 0.08190001 -0.16260636 0.047369707 -0.10228479 -0.11557311 0.07242681
0.003916533 -0.01087739 -0.17153695 -0.110434204 -0.12605886 0.016371036 -0.02965832 -0.19888997
-0.08385575 -0.019759377 0.0011308293 0.011106251 -0.14699088 -0.11709775 -0.14985773 0.0442846
0.013058421 -0.22770657 0.31018928 -0.11999034 -0.06657435 -0.060839206 0.16032389 0.1242332
0.048941955 0.12605926 0.30073756 0.027984211 0.022236712 -0.015643286 0.20768458 -0.10410421
0.14658801 0.17083599 0.05759504 0.12381679 0.113089144 0.08841673 -0.026008781 -0.1317706
00000000: f1f9 993e b03f 4fbd a21f f33d 3cac 8d3e
00000010: a768 543e 4e84 b1bd 06ab 08be 75e8 c5bd
00000020: 46fb 6dbd 3aa2 a0be 8df9 093e a44d cb3c
00000030: ae06 61bd 1f33 303e 7dcb c0bc 60c0 cfbd
00000040: 0475 15be 7dd6 e7bd 6fd5 53bd 2451 c43d
00000050: 019f 563d f33b 10be 2d9e f13d 35a3 52bd
00000060: 6ab2 06be c57c a13d ef72 91bd e4da f0bd
00000070: d489 a03e 03cf be3d 0328 4dbd b656 303d
00000080: 0fb4 143e c55a f6bd 55d8 04be 1db3 e63d
00000090: dcfe c1be 294e 053e d24c adbd a909 c4bd
000000a0: 9358 cdbc 2943 7abc 0f6a 0e3e fc15 9a3d
000000b0: fd20 db3c f6f1 a3bd 82f7 ac3d eedd db3d
000000c0: 1224 be3d 7811 f1bd 3f70 28be 363e 213e
000000d0: 71e0 613d 1ac4 57bb f229 82bd 1a54 26be
000000e0: 1530 ab3d 95d8 0d3d fdf2 603d d030 84be
000000f0: 7f10 773e 8fb4 1dbe 067f babc 9c34 46be
00000100: 0a7f bcbd 7275 81be 92d1 ddbd fde0 12be
00000110: ccb5 60bd d8ed 133e cd37 293e c72e 5dbe
00000120: e9f8 323d 3b56 c13c 3778 23be b622 9abd
00000130: 4930 acbd 94c0 163d 8ab4 15bd b07b 903d
00000140: 770c 7a3e 4e94 0a3c 8245 15be bd0f 933a
00000150: 8299 1fbc c90e e93d 8d2f efbd d920 37be
00000160: 8f9c b9bd 0b07 fbb8 2fdc afbd 3712 66bd
00000170: a99d 8bbb 4722 b0bd a5da 1b3d 4d22 bebc
00000180: e0d1 10be 0fa3 c7bd 7c02 373e 2b19 be3d
00000190: 1de1 8abd 6511 c3bc a942 303c c5bb a9bd
000001a0: 375b d93d 2b6c 90bd 2f37 733c 88d5 083e
000001b0: 3888 ec3c 5af4 a53d 3b2a 2cbd 507e 233e
000001c0: dffe 61bd ce5d a3bd 3169 803d 4e68 193c
000001d0: d9cd 7ebd 5ee4 cc3d 3543 943c e132 33be
000001e0: 0797 65bd dc13 cabd 7765 bcbb 5ff1 f83d
000001f0: cbe2 7a3d 0357 163e 5699 783e cf56 93bd
00000200: a1ae 9fbd 7c66 49bd 4b43 cbbd b511 04be
00000210: d6dc 3ebe 3c1c 7a3d f2a3 7e3e 961e 49bd
00000220: 960f 87be f1dc e13d 952e 623e bb55 dbbc
00000230: 8ebe 1dbe 08fa 273e 22e2 51bd bcb5 a83c
00000240: 9de4 ad3d bbae fabc 6d6e 9fbe 89ef f1bc
00000250: da5e cb3c 9103 35be 118b e6bd 745e 803e
00000260: f227 d93d cc47 b1bc 2b5e e1bd fb04 5dbd
00000270: 1e17 f3bd dd92 043e 8213 453e 5a45 603d
00000280: 7bea 18be 1375 793d dad1 99bd 9527 333e
00000290: 2f26 1ebd 6eca 8d3d 1dfa dd3d f648 3b3e
000002a0: e8c6 7c3d eedb 21be 9d91 aabd 56e1 263e
000002b0: 4090 6c3e b5a3 043c afb6 9ebc 2e6c 04bd
000002c0: 30f7 9b3c 63e9 da3d 2895 f43c 8fd5 ec3c
000002d0: 95fa f8bd 4d4a 0c3e 474b 2fbe f6b3 a13d
000002e0: a27b d0bc 4bec 31be d34a 623d fceb 6fb9
000002f0: 4c89 f9bd 0864 b5bd b83a 26be d8cd 123e
00000300: 7cd3 ecbd 731c 29be 9878 9cbc 3b80 22be
00000310: cecb 083e 54be 773e 55b8 623e 88e7 bfbd
00000320: 5090 babc a95e c53d f892 f13b 2e0e d43d
00000330: 6480 a2bc db4a 0bbe 9abe f7bd e9c0 52bd
00000340: a2d1 013d a958 5c3e 31bb a73d 4882 26be
00000350: bd06 423d b07a d1bd 98b1 ecbd 8254 943d
00000360: 4356 803b 1537 32bc 62a7 2fbe 542b e2bd
00000370: 9315 01be 8d1c 863c 01f6 f2bc d0a9 4bbe
00000380: 90bc abbd 6bde a1bc 5638 943a fef6 353c
00000390: c784 16be f2d0 efbd 4e74 19be c563 353d
000003a0: fdf2 553c e92b 69be 21d1 9e3e 7fbd f5bd
000003b0: 2258 88bd 8832 79bd f22b 243e fa6d fe3d
000003c0: 5c77 483d ae15 013e 46fa 993e 253f e53c
000003d0: c429 b63c 5926 80bc 44ab 543e 9734 d5bd
000003e0: 2b1b 163e a1ef 2e3e c7e8 6b3d a893 fd3d
000003f0: 489b e73d d513 b53d 5e10 d5bc dfee 06be

fc.bias f4 [3]
0.08426886 0.11923335 -0.175104
00000000: 2795 ac3d 9d30 f43d 774e 33be
