controller_best_szymon.pth (torch, 5477 bytes, 2 tensors)

fc.weight f4 [3, 288]
0	0x3e873a5d	0.26411715
1	0x3d0d86e5	0.034552474
2	0xbe0b7b3e	-0.13621232
3	0x3e2e9170	0.17047668
4	0x3d894740	0.06703043
5	0xbe5d2767	-0.21597062
6	0xbe2f5722	-0.17123082
7	0x3d908fd4	0.07058683
8	0x3d963468	0.073342144
9	0xbe2e1230	-0.16999125
10	0x3dfabc34	0.12242928
11	0xbd93f566	-0.072245404
12	0xbd7a6a07	-0.06113627
13	0x3ec9efcd	0.39440766
14	0xbe898bc9	-0.2686446
15	0xbd73c2ad	-0.05951183
16	0xbe47aab1	-0.19498707
17	0x3d3236dd	0.043509353
18	0xbd46ea37	-0.04856321
19	0x3ebe26cd	0.37138978
20	0xbe238dd6	-0.15972075
21	0xbe3b7f06	-0.18310174
22	0x3ea38911	0.3194051
23	0xbdb50bac	-0.08840117
24	0xbdfebcd1	-0.124383576
25	0x3e7ea220	0.24866533
26	0xbe18186f	-0.1485307
27	0xbe86ea4c	-0.2635063
28	0x3e91905a	0.28430444
29	0x3df7421d	0.12073157
30	0x3da7756f	0.081766956
31	0xbe523190	-0.20526719
32	0x3d111ae6	0.035426043
33	0xbcca732e	-0.024713125
34	0xbdf69bcd	-0.120414354
35	0x3e00b01e	0.12567183
36	0x3dbbe54b	0.091745935
37	0xbc0b6142	-0.008507075
38	0x3e0fdd8a	0.14049354
39	0xbdd20fd8	-0.10256928
40	0xbdc6bb5a	-0.09703703
41	0x3cdcdc25	0.026960442
42	0xbdc4a716	-0.096021816
43	0x3e23409c	0.15942615
44	0x3df07cdd	0.11742566
45	0xbd4b8fc2	-0.049697645
46	0xbd31ef32	-0.043441005
47	0xbe3ff435	-0.18745501
48	0x3d52d4a7	0.051472332
49	0xbceb2ed6	-0.028708857
50	0x3e674513	0.22584943
51	0x3d2dbb92	0.04241521
52	0xbdfd9bdb	-0.12383243
53	0x3e3cc396	0.18433985
54	0xbe661917	-0.22470509
55	0xbe9a189d	-0.30096903
56	0x3e33e595	0.17568047
57	0xbe597438	-0.2123574
58	0x3cd7914c	0.0263144
59	0xbeb55552	-0.35416657
60	0x3e4c61a6	0.19959125
61	0x3dc1493a	0.09437795
62	0x3d3d32ab	0.0461909
63	0x3d95d05b	0.07315131
64	0x3e84a71c	0.25908744
65	0x3ce7b9c4	0.028286822
66	0xbd4334eb	-0.04765789
67	0x3e285332	0.16437986
68	0x3d8655af	0.065593116
69	0xbe963eb0	-0.29344702
70	0xbdbd70a0	-0.09249997
71	0x3d851ec3	0.06500008
72	0x3e344d47	0.17607604
73	0x3d8d93d3	0.06912961
74	0xbd86442d	-0.06555972
75	0xbe5cd4ab	-0.21565501
76	0x3dfadc05	0.12248997
77	0x3d42d692	0.04756791
78	0xbed75403	-0.42056283
79	0x3db9b13d	0.09067009
80	0x3dcb7a68	0.099354565
81	0x3e149525	0.14510019
82	0xbe686c37	-0.2269753
83	0xbdd9e4e7	-0.10639363
84	0xbd05fa02	-0.03270913
85	0x3dd35d25	0.103205
86	0x3d8d3d45	0.06896452
87	0xbeaf672c	-0.342584
88	0xbe35f1fa	-0.17768088
89	0xbcb206a1	-0.021731677
90	0x3d5b5f66	0.053557776
91	0x3d1c1bbe	0.038112395
92	0x3e471c45	0.19444378
93	0xbd1e2323	-0.038607728
94	0xbd7733ba	-0.060352065
95	0xbe18fe79	-0.14940824
96	0xbe4d3cdf	-0.20042752
97	0xbd806d0b	-0.06270798
98	0x3e4fbdc7	0.20287238
99	0x3bd4350b	0.00647605
100	0xbcc8ef06	-0.024528038
101	0xbe3ed84e	-0.18637201
102	0xbb9b752f	-0.004744194
103	0xbd8275a3	-0.06370094
104	0x3e7d0d54	0.24712116
105	0xbc96fd5c	-0.018431358
106	0x3e161e96	0.14660105
107	0xbb833147	-0.004003677
108	0xbdf0bea4	-0.11755112
109	0x3bb210ca	0.0054341303
110	0xbe663251	-0.22480132
111	0x3e94e915	0.29084077
112	0xbe0a8162	-0.13525918
113	0xbdf65b37	-0.120291166
114	0xbdb04df3	-0.08608618
115	0x3e0c382b	0.13693301
116	0xbdcb8369	-0.09937174
117	0x3e257d09	0.16160978
118	0xbdcbf120	-0.099581
119	0xbdbdd2c1	-0.09268714
120	0x3e5c2400	0.21498108
121	0xbdeb6bd0	-0.11495173
122	0x3e1d71e9	0.15375485
123	0xbe1ed686	-0.15511522
124	0xbd2e2861	-0.042518977
125	0xbdcb0730	-0.0991348
126	0xbdce78a3	-0.100816034
127	0xbe966957	-0.29377243
128	0xbe943f6a	-0.2895463
129	0xbceb8a8b	-0.028752586
130	0xbe147ccb	-0.1450073
131	0x3d21d8bd	0.03951334
132	0xbe40f01b	-0.18841593
133	0xbde5102e	-0.11184727
134	0x3e0214b3	0.12703209
135	0xbe9a7aef	-0.30171916
136	0x3cd21787	0.025645984
137	0xbe31b726	-0.17355022
138	0xbe8ba345	-0.27273002
139	0xbd361b52	-0.04445965
140	0xbd95dc8c	-0.073174566
141	0xbb47dc3e	-0.0030496265
142	0xbd9cc3cd	-0.076545335
143	0x3e120fd5	0.14263852
144	0xbe072a76	-0.13199791
145	0x3dde2e39	0.1084866
146	0xbe2d50cf	-0.16925357
147	0xbe1032ae	-0.14081833
148	0xbdcbeca5	-0.09957246
149	0xbd4491ca	-0.047990598
150	0x3d96dfbf	0.07366895
151	0x3e2df683	0.16988568
152	0xbd988040	-0.07446337
153	0x3d694154	0.056947067
154	0xbe986964	-0.29767907
155	0x3d1dd269	0.03853074
156	0xbe344fef	-0.17608617
157	0xbc2ecedc	-0.010669436
158	0x3e714300	0.23560715
159	0x3dc9467b	0.09827896
160	0x3c79e296	0.015251776
161	0x3dfb812b	0.12280496
162	0x3e81f9a6	0.2538578
163	0xbd9f3b79	-0.077750154
164	0x3e8dd264	0.27699578
165	0xbce30f15	-0.027717153
166	0x3ebbe959	0.36701468
167	0x3d1bfd66	0.038083456
168	0x3ec54eeb	0.38536772
169	0x3dd50bee	0.10402666
170	0x3c23a1ed	0.009987337
171	0x3e251f7c	0.16125292
172	0xbe248757	-0.16067253
173	0xbdd929ff	-0.10603713
174	0x3dd559bf	0.10417508
175	0xbea0baac	-0.3139242
176	0x3e7c9fc7	0.24670325
177	0x3db03c68	0.086052716
178	0x3e238481	0.15968515
179	0xbd8f8bbe	-0.070090756
180	0xbc877894	-0.016536988
181	0x3db64ddb	0.089015685
182	0xbd344d0e	-0.044018798
183	0x3e325e14	0.174187
184	0x3e62c721	0.22146274
185	0xbe627ada	-0.22117177
186	0xbdc27ed4	-0.09496847
187	0x3e150f32	0.14556578
188	0xbec19bd4	-0.378142
189	0xbe02ceef	-0.12774251
190	0xbe06ad13	-0.1315196
191	0xbd1bf746	-0.038077615
192	0xbe6009ea	-0.21878782
193	0x3d140737	0.036139693
194	0x3e8cba5e	0.27485937
195	0xbde540a8	-0.11193973
196	0x3d8ea05f	0.06964182
197	0x3e8f9d75	0.28049818
198	0x3e5810a6	0.21100101
199	0x3debc086	0.1151133
200	0xbde73cb7	-0.11290877
201	0x3e5915f2	0.21199778
202	0xbdd1d64e	-0.102459535
203	0xbd948f93	-0.07253947
204	0xbdc50f18	-0.096220195
205	0x3e4d1205	0.20026405
206	0xbe803079	-0.25036982
207	0x3db5e95b	0.088824
208	0xbe80572d	-0.2506651
209	0x3dedfc5e	0.11620401
210	0x3c509970	0.012731895
211	0xbe847c93	-0.25876293
212	0x3b8f555d	0.00437419
213	0x3df08980	0.11744976
214	0x3d319f72	0.04336495
215	0xbdd51bec	-0.10405716
216	0x3db40d10	0.08791554
217	0x3cb8ed0f	0.022573976
218	0xbdd13e7e	-0.102169976
219	0xbe53731b	-0.20649378
220	0x3d08cac1	0.033396486
221	0xba060b9f	-0.0005113426
222	0xbe118239	-0.14209832
223	0x3d8b699a	0.06807251
224	0xbe844285	-0.25832
225	0x3b963f3b	0.0045851744
226	0x3ce4435b	0.027864149
227	0x3e634bfe	0.22196957
228	0x3ccc1d73	0.024916386
229	0x3e0cff3b	0.13769238
230	0xbdd4be93	-0.10387912
231	0x3c82e43e	0.015977975
232	0x3d5305fd	0.051519383
233	0x3da8b36d	0.08237348
234	0x3e6ee0bd	0.23327918
235	0xbd297393	-0.041369986
236	0xbdb08206	-0.0861855
237	0xbe1bebab	-0.15226619
238	0x3ed1e7bc	0.40997112
239	0x3d418067	0.047241595
240	0x3dff95e2	0.1247976
241	0x3eabba6b	0.33540663
242	0x3dbc56f7	0.09196275
243	0x3e0c626b	0.13709418
244	0xbcedd792	-0.029033456
245	0xbe98f8e1	-0.2987738
246	0xbd6eee1b	-0.058332544
247	0x3d28f517	0.04124936
248	0x3d2a8d95	0.04163893
249	0x3ea3ceaa	0.3199361
250	0xbb1710c3	-0.0023050762
251	0x3e1e0596	0.15431818
252	0x3e17916d	0.1480157
253	0x3e1c28ee	0.15249988
254	0xbaf9cc9a	-0.0019058168
255	0x3e2a893d	0.16653915

fc.bias f4 [3]
0	0x3e2f5499	0.17122115
1	0x3dd588a7	0.10426455
2	0xbe368f30	-0.17828059
