controller_best.pth (torch, 5477 bytes, 2 tensors)

fc.weight f4 [3, 288]
0	0x3e5ad7cc	0.21371382
1	0x3d2d040b	0.042240184
2	0x3e59450a	0.21217743
3	0x3d673c14	0.05645378
4	0xbcf7be62	-0.030242149
5	0xbe1c5267	-0.15265809
6	0xbe22adc8	-0.15886605
7	0x3c052395	0.008126159
8	0x3d543a15	0.051813204
9	0xbe1515bc	-0.14559072
10	0x3df84511	0.12122548
11	0xbdeb6f7a	-0.11495872
12	0x3d099122	0.033585675
13	0x3e8a392f	0.26996753
14	0xbd698723	-0.057013642
15	0xbdc66387	-0.09686952
16	0xbdc85989	-0.097827025
17	0x3d1cde10	0.038297713
18	0xbd3eb5f3	-0.04656024
19	0x3e9b6000	0.3034668
20	0xbca64886	-0.020298254
21	0xbde95b14	-0.11394325
22	0x3e6f78bd	0.23385902
23	0xbd8b7f7b	-0.06811424
24	0xbe179df3	-0.14806347
25	0x3e8d7420	0.2762766
26	0xbd998805	-0.07496647
27	0xbe931e00	-0.28733826
28	0x3e6d9272	0.23200396
29	0xbc3f470e	-0.011674656
30	0x3d79c41e	0.060978048
31	0xbe095bbe	-0.13413903
32	0x3dcd130a	0.10013397
33	0xbcdbadf7	-0.026816351
34	0xbce32352	-0.027726803
35	0x3e004a27	0.12528287
36	0x3b516236	0.0031949407
37	0x3e334c54	0.17509586
38	0x3e0c9388	0.13728154
39	0xbbc1fee3	-0.0059202774
40	0xbcc25406	-0.023721706
41	0x3c75df4b	0.0150068505
42	0x3ca2b434	0.019861318
43	0x3e3fc1d1	0.18726279
44	0x3deca199	0.1155426
45	0xbd992dd1	-0.07479442
46	0x3c1b5ca7	0.009482539
47	0xbc890ebf	-0.016730664
48	0x3e041e65	0.1290222
49	0xbd86ad3d	-0.06576011
50	0x3ddc794b	0.10765322
51	0x3db81d50	0.08989966
52	0xbc3ecd13	-0.011645573
53	0x3dabc8b7	0.08387893
54	0xbe769bae	-0.24082825
55	0xbe915734	-0.28386843
56	0x3e4f1ada	0.20225087
57	0x3d98596f	0.07438933
58	0x3e3581f2	0.17725351
59	0xbe738355	-0.23780568
60	0x3d19f02c	0.03758256
61	0xbca850f6	-0.020546418
62	0xbced5c04	-0.02897454
63	0x3d41bcbe	0.04729914
64	0x3e34e645	0.17665966
65	0xbcf705d0	-0.030154139
66	0xbde677c4	-0.11253312
67	0x3ddd81b1	0.10815752
68	0x3c301446	0.010747021
69	0xbe09255f	-0.13393162
70	0x3c807b0a	0.01568367
71	0x3cb6100a	0.022224445
72	0x3ddd3c7a	0.108025506
73	0xbc95d3f3	-0.018289542
74	0xbda87039	-0.0822453
75	0xbe1e818e	-0.15479109
76	0x3c85b9de	0.01632398
77	0xbd0942c0	-0.033510923
78	0xbeabfd5d	-0.33591738
79	0x3dd16de2	0.102260366
80	0x3e0f056c	0.13966912
81	0x3d8ba626	0.068188
82	0xbe1058b0	-0.14096332
83	0xbd6fb647	-0.058523443
84	0x3dad84c0	0.08472586
85	0x3e18d755	0.14925893
86	0x3de5c6ae	0.11219536
87	0xbe35096e	-0.17679378
88	0xbe1a0fc7	-0.15045081
89	0xbda4e840	-0.08052111
90	0x3e13a7d3	0.14419489
91	0xbbc6ce96	-0.0060671074
92	0x3dd3dee0	0.103452444
93	0xbe154a81	-0.14579202
94	0xbc1d49bb	-0.009600098
95	0xbdee9d94	-0.116511494
96	0xbe8451ec	-0.2584375
97	0xbdee1246	-0.11624579
98	0x3e7c34dd	0.2462954
99	0x3ce221e0	0.027604043
100	0x3d885af6	0.066579744
101	0xbe287da3	-0.16454177
102	0xbdb78e13	-0.089626454
103	0xbaf16db0	-0.001841953
104	0x3e7825c0	0.2423315
105	0xbd7623f4	-0.06009288
106	0x3d382882	0.044960506
107	0x3d86c256	0.065800354
108	0xbe6f6e5b	-0.23381941
109	0xbcde2efa	-0.02712201
110	0xbda0ba02	-0.07847978
111	0x3e977d1f	0.29587647
112	0xbe288fd2	-0.16461113
113	0xbdea93c8	-0.11453968
114	0xbdb635ab	-0.08896955
115	0x3d7cc420	0.061710477
116	0xbb811edd	-0.003940447
117	0x3dbd593d	0.092455365
118	0xbdebcbcb	-0.1151348
119	0xbe0f7cc0	-0.14012432
120	0x3e09a9bf	0.13443659
121	0xbe1e6f99	-0.15472259
122	0x3d969a9e	0.0735371
123	0xbdd48d67	-0.10378533
124	0x3bf921b5	0.007602895
125	0xbc73d29a	-0.014881754
126	0xbe0a5d5f	-0.13512181
127	0xbe14748a	-0.14497581
128	0xbe02437d	-0.12721057
129	0x3b16c187	0.0023003535
130	0xbe518ef8	-0.20464694
131	0xbcbd29f9	-0.023091303
132	0xbddc7155	-0.10763804
133	0xbe143d77	-0.14476572
134	0x3d708dd2	0.058729
135	0xbe7492f8	-0.23884189
136	0x3bb6070d	0.0055550397
137	0xbdc77f89	-0.09741122
138	0xbde635b7	-0.11240714
139	0x3cd13408	0.025537506
140	0xbd8d51d5	-0.06900374
141	0xbd3d6d69	-0.04624692
142	0xbdfe4ba6	-0.124167725
143	0x3e04969e	0.12948081
144	0xbe31c8d0	-0.1736176
145	0x3de037e8	0.10948163
146	0xbe41dccd	-0.18931885
147	0xbdc1ca72	-0.094624415
148	0x3d074989	0.033029113
149	0xbd64610c	-0.055756614
150	0xbd831c0c	-0.06401834
151	0x3e5372a8	0.20649207
152	0xbd2f28c8	-0.0427635
153	0x3d804fe2	0.062652364
154	0xbe9af3d8	-0.30264163
155	0x3dfb23d3	0.12262692
156	0xbe56e630	-0.20986247
157	0xbb24c5e2	-0.0025142361
158	0x3e2d5144	0.16925532
159	0x3c71cf2e	0.014758868
160	0xbd797355	-0.060901005
161	0x3ccf7ac8	0.025327101
162	0x3d9cab38	0.07649845
163	0xbd2aec11	-0.041729037
164	0x3e80b354	0.25136817
165	0x3a31d84f	0.00067842467
166	0x3e5e89aa	0.21732202
167	0x3c355f27	0.011070049
168	0x3e0cacf1	0.13737847
169	0xbc76606f	-0.01503764
170	0x3d513004	0.051071182
171	0x3d78e24b	0.060762685
172	0xbdd89d48	-0.10576874
173	0xbe10d7b7	-0.14144789
174	0x3cdb948d	0.026804233
175	0xbe277bea	-0.16355863
176	0x3e806166	0.2507431
177	0x3dc9ea10	0.09859097
178	0x3d24ea65	0.0402626
179	0xbd13c5cd	-0.03607731
180	0x3b9df798	0.0048207752
181	0x3daa2069	0.08306963
182	0x3e05e0f6	0.13074097
183	0x3e304484	0.17213637
184	0x3da33607	0.07969289
185	0xbe049e34	-0.12950975
186	0x3b987917	0.004653107
187	0x3e0436e9	0.12911572
188	0xbea443a7	-0.32082865
189	0xbd2b671e	-0.041846387
190	0xbe331b13	-0.17490797
191	0xbc4d6006	-0.012535101
192	0xbe93bf95	-0.28857103
193	0x3c64761a	0.013944173
194	0x3cf4e0b7	0.029892309
195	0xbde4380b	-0.11143502
196	0xbd08c674	-0.033392385
197	0x3ead6aab	0.33870444
198	0x3e6803b5	0.22657664
199	0x3cfbf010	0.03075412
200	0xbdbe8efc	-0.09304616
201	0x3e4b9fac	0.19885129
202	0xbc54ed3b	-0.012996013
203	0xbda2c8a5	-0.07948426
204	0xbde0fe23	-0.10985973
205	0x3e432bd7	0.19059692
206	0xbe794db4	-0.24346048
207	0xbd06c156	-0.032899223
208	0xbbebd4ba	-0.00719699
209	0x3e82a22c	0.25514352
210	0x3dc0a558	0.09406537
211	0xbe87518f	-0.26429412
212	0x3d89c68f	0.06727325
213	0x3de49e13	0.11162963
214	0x3d4df4df	0.050282355
215	0xbcbef082	-0.023308042
216	0x3e19362f	0.14962076
217	0x3d23eb58	0.040019363
218	0x3c6dad7d	0.014506695
219	0xbd6bf9d4	-0.0576113
220	0x3d52a3ee	0.051425867
221	0xbd1aa8ce	-0.03775864
222	0xbdc5e37d	-0.096625306
223	0x3cd8966c	0.026438914
224	0xbe45f958	-0.19333398
225	0x3d1f3a8d	0.038874198
226	0x3d89e984	0.06733993
227	0x3e029197	0.1275085
228	0x3dea4fa5	0.11440972
229	0x3e4691b4	0.19391519
230	0xbe7d21f6	-0.24719986
231	0x3e3099a0	0.17246103
232	0x3d3f47ad	0.046699215
233	0x3d4b15dc	0.049581394
234	0x3e6bc907	0.23025905
235	0xbe40fdb4	-0.1884678
236	0xbdf2fb3d	-0.11864326
237	0xbd321a93	-0.043482374
238	0x3ebf6686	0.37382907
239	0x3dd14751	0.10218681
240	0x3e1c1d6c	0.15245599
241	0x3e4086c1	0.18801405
242	0x3e81d73b	0.2535952
243	0x3db6b917	0.08922022
244	0xbdee78fc	-0.1164417
245	0xbe61414e	-0.21997568
246	0x3d87880b	0.06617745
247	0xbd197922	-0.037469037
248	0x3dfdbe80	0.123898506
249	0x3e64f654	0.22359592
250	0xbd8c9a7d	-0.06865404
251	0x3c419b22	0.011816772
252	0x3dd15b63	0.10222509
253	0x3e7918b3	0.24325828
254	0x3d208279	0.03918693
255	0xbc1bbd79	-0.009505623

fc.bias f4 [3]
0	0x3e21d130	0.15802455
1	0x3d72605d	0.05917393
2	0xbd4f5c13	-0.05062492
